…
,"end_time":"2024-10-20T21:35:27.47282","exception":false,"start_time":"2024-10-20T21:33:18.421051","status":"completed"},"tags":[]},"outputs":[{"name":"stdout","output_type":"stream","text":["Model: \"functional_1\"\n","_________________________________________________________________\n","Layer (type)                 Output Shape              Param #   \n","=================================================================\n","input_1 (InputLayer)         [(None, 258, 540, 1)]     0         \n","_________________________________________________________________\n","conv2d (Conv2D)              (None, 258, 540, 64)      640       \n","_________________________________________________________________\n","batch_normalization (BatchNo (None, 258, 540, 64)      256       \n","_________________________________________________________________\n","conv2d_1 (Conv2D)            (None, 258, 540, 32)      18464     \n","_________________________________________________________________\n","max_pooling2d (MaxPooling2D) (None, 129, 270, 32)      0         \n","_________________________________________________________________\n","conv2d_2 (Conv2D)            (None, 129, 270, 16)      4624      \n","_________________________________________________________________\n","batch_normalization_1 (Batch (None, 129, 270, 16)      64        \n","_________________________________________________________________\n","max_pooling2d_1 (MaxPooling2 (None, 65, 135, 16)       0         \n","_________________________________________________________________\n","conv2d_3 (Conv2D)            (None, 65, 135, 8)        1160      \n","_________________________________________________________________\n","max_pooling2d_2 (MaxPooling2 (None, 33, 68, 8)         0         \n","_________________________________________________________________\n","conv2d_4 (Conv2D)            (None, 33, 68, 4)         292       \n","_________________________________________________________________\n","batch_normalization_2 (Batch (None, 33, 68, 4)         16        \n","_________________________________________________________________\n","max_pooling2d_3 (MaxPooling2 (None, 17, 34, 4)         0         \n","_________________________________________________________________\n","conv2d_5 (Conv2D)            (None, 17, 34, 8)         296       \n","_________________________________________________________________\n","up_sampling2d (UpSampling2D) (None, 34, 68, 8)         0         \n","_________________________________________________________________\n","cropping2d (Cropping2D)      (None, 33, 68, 8)         0         \n","_________________________________________________________________\n","conv2d_6 (Conv2D)            (None, 33, 68, 16)        1168      \n","_________________________________________________________________\n","batch_normalization_3 (Batch (None, 33, 68, 16)        64        \n","_________________________________________________________________\n","up_sampling2d_1 (UpSampling2 (None, 66, 136, 16)       0         \n","_________________________________________________________________\n","cropping2d_1 (Cropping2D)    (None, 65, 135, 16)       0         \n","_________________________________________________________________\n","conv2d_7 (Conv2D)            (None, 65, 135, 32)       4640      \n","_________________________________________________________________\n","up_sampling2d_2 (UpSampling2 (None, 130, 270, 32)      0         \n","_________________________________________________________________\n","cropping2d_2 (Cropping2D)    (None, 129, 270, 32)      0         \n","_________________________________________________________________\n","conv2d_8 (Conv2D)            (None, 129, 270, 64)      18496     \n","_________________________________________________________________\n","batch_normalization_4 (Batch (None, 129, 270, 64)      256       \n","_________________________________________________________________\n","up_sampling2d_3 (UpSampling2 (None, 258, 540, 64)      0         \n","_________________________________________________________________\n","conv2d_9 (Conv2D)            (None, 258, 540, 1)       577       \n","=================================================================\n","Total params: 51,013\n","Trainable params: 50,685\n","Non-trainable params: 328\n","_________________________________________________________________\n","Epoch 1/10\n","68/68 [==============================] - 12s 172ms/step - loss: 0.0685 - val_loss: 0.0569\n","Epoch 2/10\n","68/68 [==============================] -
…
