…
-05-26T22:00:13.115706Z","shell.execute_reply.started":"2024-05-26T21:53:34.965463Z","shell.execute_reply":"2024-05-26T22:00:13.114837Z"},"trusted":true},"execution_count":15,"outputs":[{"name":"stdout","text":"Model: \"functional_1\"\n_________________________________________________________________\nLayer (type)                 Output Shape              Param #   \n=================================================================\ninput_1 (InputLayer)         [(None, 258, 540, 1)]     0         \n_________________________________________________________________\nconv2d (Conv2D)              (None, 258, 540, 64)      640       \n_________________________________________________________________\nbatch_normalization (BatchNo (None, 258, 540, 64)      256       \n_________________________________________________________________\ndropout (Dropout)            (None, 258, 540, 64)      0         \n_________________________________________________________________\nconv2d_1 (Conv2D)            (None, 258, 540, 32)      18464     \n_________________________________________________________________\ndropout_1 (Dropout)          (None, 258, 540, 32)      0         \n_________________________________________________________________\nmax_pooling2d (MaxPooling2D) (None, 129, 270, 32)      0         \n_________________________________________________________________\nconv2d_2 (Conv2D)            (None, 129, 270, 16)      4624      \n_________________________________________________________________\nbatch_normalization_1 (Batch (None, 129, 270, 16)      64        \n_________________________________________________________________\nmax_pooling2d_1 (MaxPooling2 (None, 65, 135, 16)       0         \n_________________________________________________________________\nconv2d_3 (Conv2D)            (None, 65, 135, 8)        1160      \n_________________________________________________________________\nmax_pooling2d_2 (MaxPooling2 (None, 33, 68, 8)         0         \n_________________________________________________________________\nconv2d_4 (Conv2D)            (None, 33, 68, 4)         292       \n_________________________________________________________________\nbatch_normalization_2 (Batch (None, 33, 68, 4)         16        \n_________________________________________________________________\nmax_pooling2d_3 (MaxPooling2 (None, 17, 34, 4)         0         \n_________________________________________________________________\nconv2d_5 (Conv2D)            (None, 17, 34, 8)         296       \n_________________________________________________________________\nup_sampling2d (UpSampling2D) (None, 34, 68, 8)         0         \n_________________________________________________________________\ncropping2d (Cropping2D)      (None, 33, 68, 8)         0         \n_________________________________________________________________\nconv2d_6 (Conv2D)            (None, 33, 68, 16)        1168      \n_________________________________________________________________\nbatch_normalization_3 (Batch (None, 33, 68, 16)        64        \n_________________________________________________________________\nup_sampling2d_1 (UpSampling2 (None, 66, 136, 16)       0         \n_________________________________________________________________\ncropping2d_1 (Cropping2D)    (None, 65, 135, 16)       0         \n_________________________________________________________________\nconv2d_7 (Conv2D)            (None, 65, 135, 32)       4640      \n_________________________________________________________________\nup_sampling2d_2 (UpSampling2 (None, 130, 270, 32)      0         \n_________________________________________________________________\ndropout_2 (Dropout)          (None, 130, 270, 32)      0         \n_________________________________________________________________\ncropping2d_2 (Cropping2D)    (None, 129, 270, 32)      0         \n_________________________________________________________________\nconv2d_8 (Conv2D)            (None, 129, 270, 64)      18496     \n_________________________________________________________________\nbatch_normalization_4 (Batch (None, 129, 270, 64)      256       \n_________________________________________________________________\nup_sampling2d_3 (UpSampling2 (None, 258, 540, 64)      0         \n_________________________________________________________________\ndropout_3 (Dropout)          (None, 258, 540, 64)      0         \n_________________________________________________________________\nconv2d_9 (Conv2D)            (None, 258, 540, 1)       577       \n=================================================================\nTotal params: 51,013\nTrainable params: 50,685\nNon-trainable params: 328\n_________________________________________________________________\nEpoch 1/100\n68/68 [==============================] - 15s 223ms/step - loss: 0.0582 - val_loss: 0.0592\nEpoch 2/100\n68/68 [==============================] - 15s 217ms/step - loss: 0
…
